models/credit_kmeans.onnx (onnx, 1003 bytes, 2 tensors)

Ad_Addcst f4 [5]
00000000: a25f 5941 3ca1 5a40 5b2a 1043 a704 0c41
00000010: 49ea 1940
13.585848 3.416091 144.16545 8.751136 2.4049246

Ge_Gemmcst f4 [5, 16]
00000000: dcce ba3f 1348 c43e 3cae 76be 3607 34be
00000010: 849f 7cbe 2d9c de3f e1d2 05bf 5d48 74be
00000020: 4823 eabe 7093 e43f fe93 d63f 5b57 94be
00000030: 9887 553f 3779 223f f358 003f b433 cebe
00000040: 7f7c debe 5ceb e63d 1b0f c2bd d0a3 84be
00000050: e0f1 803e 21fd c1be a29e 6a3f 68be d2be
00000060: 699a 8b3f cb49 f7be 189e bdbe 0226 a83d
00000070: 041f b3be 3240 8cbe 347e 91bd db3c c83e
00000080: 852d c43f 3629 dc3e c2de c540 ec1b a940
00000090: 9e17 9d40 d856 0e3d 773d 8e3f 8a87 df3f
000000a0: cd33 8e3f 1cf1 7cbe f13d 7cbd bc4d 9240
000000b0: 4fd1 0540 6331 8b40 4bd9 8a3f ac67 243f
000000c0: d5a3 f53d 8613 d83e b3b6 5b3f 7160 533f
000000d0: 0b2b 033f df57 9dbe c6c2 883f ae01 e63f
000000e0: 2556 053f 76a2 c9be ee82 a1be 5ac5 8b3f
000000f0: 32ae 263f ac17 a83e 41b5 f0bc c40c ce3e
00000100: 9152 7cbe eeba afbe 9389 aebe 37c1 64be
00000110: 557d cabe e98e 2fbe 264d 51bf 7b57 b8be
00000120: 22fe 3fbf b4f1 a9bd 7467 1cbe d709 f3be
00000130: 9c81 a2be 2ede 80be 2b5d fbbd e725 90be
1.4594378 0.38336238 -0.24089903 -0.17580876 -0.24670225 1.7391411 -0.522749 -0.2385573
-0.45730042 1.7857494 1.6763914 -0.28972897 0.83410025 0.6346621 0.50135726 -0.4027382
-0.43454358 0.1127536 -0.094755374 -0.2590623 0.25184536 -0.37888435 0.91648304 -0.41160893
1.0906497 -0.48298487 -0.37034678 0.082103744 -0.349846 -0.27392727 -0.071041495 0.3910893
1.5326391 0.4300019 6.183442 5.2846584 4.909133 0.03475079 1.1112508 1.7463238
1.1109558 -0.24701351 -0.06158251 4.571989 2.0909002 4.3497787 1.0847563 0.6422069
0.11994139 0.42202395 0.8582565 0.8256903 0.51237553 -0.30731103 1.068444 1.7969263
0.5208457 -0.3938176 -0.31545204 1.0919602 0.6510955 0.3283056 -0.029383304 0.40244114
-0.24640872 -0.34322304 -0.34089336 -0.2233933 -0.39548746 -0.1714436 -0.81758344 -0.36004242
-0.7499715 -0.08298054 -0.15273839 -0.47468445 -0.3173951 -0.2516951 -0.1227363 -0.28153917
