models/credit_kmeans.onnx (onnx, 790 bytes, 2 tensors)

Ad_Addcst f4 [4]
000000 e0 e8 5a 4c 64 bc d3 4a 5f cf 0d 4e c5 aa 32 4d
       5.7385856e+07 6.938162e+06 5.9479443e+08 1.87346e+08

Ge_Gemmcst f4 [4, 7]
000000 3c 80 d4 44 3f 2c 0f 3f 6f e8 72 44 70 ed 03 45
       1700.0073 0.5592689 971.6318 2110.8398
000010 92 6c 1e 44 66 a1 43 3e 2f 11 da 45 20 d2 46 44
       633.6964 0.19104537 6978.148 795.2832
000020 f7 89 ea 3e 51 aa e9 43 58 25 63 44 5e 27 0f 44
       0.45808384 467.3306 908.5835 572.6151
000030 81 36 18 3e bb d3 0a 45 30 5e 9c 45 bc 17 05 3f
       0.14864542 2221.2332 5003.7734 0.5198934
000040 c5 a2 02 46 b9 56 91 46 7b d9 10 45 eb 0d 7c 3e
       8360.692 18603.361 2317.5925 0.24614684
000050 b1 57 3e 46 17 07 b4 45 46 95 fd 3e 01 b2 4b 45
       12181.923 5760.886 0.4952795 3259.1252
000060 2f 58 58 45 1b 9a 3f 45 6c 70 7b 3d b5 b1 2c 46
       3461.5115 3065.6316 0.06138651 11052.427
